Layer (type)                 Output Shape              Param #   
=================================================================
conv2d_7 (Conv2D)            (None, 64, 64, 32)        896       
_________________________________________________________________
max_pooling2d_7 (MaxPooling2 (None, 32, 32, 32)        0         
_________________________________________________________________
conv2d_8 (Conv2D)            (None, 32, 32, 64)        18496     
_________________________________________________________________
max_pooling2d_8 (MaxPooling2 (None, 16, 16, 64)        0         
_________________________________________________________________
conv2d_9 (Conv2D)            (None, 16, 16, 128)       73856     
_________________________________________________________________
max_pooling2d_9 (MaxPooling2 (None, 8, 8, 128)         0         
_________________________________________________________________
dropout_5 (Dropout)          (None, 8, 8, 128)         0         
_________________________________________________________________
flatten_3 (Flatten)          (None, 8192)              0         
_________________________________________________________________
dense_5 (Dense)              (None, 512)               4194816   
_________________________________________________________________
dropout_6 (Dropout)          (None, 512)               0         
_________________________________________________________________
dense_6 (Dense)              (None, 1)                 513       
=================================================================
Total params: 4,288,577
Trainable params: 4,288,577
Non-trainable params: 0
_________________________________________________________________
None
Epoch 1/100
460/460 [==============================] - 46s 101ms/step - loss: 0.1427 - val_loss: 0.0909
Epoch 2/100
460/460 [==============================] - 46s 99ms/step - loss: 0.1092 - val_loss: 0.0785
…
